bias_IW.npy (npy, 648 bytes, 1 tensors)

array f8 [65]
00000000: d0cd 1522 3cb2 3740 0fe2 6306 d810 2540
00000010: 8faa 5c33 26f3 20c0 9fb4 baea cc46 c63f
00000020: 54d5 1e77 bc28 b43f afc1 7f24 416f 16c0
00000030: 53b2 739b 450d 0d40 e259 662f 4129 0ec0
00000040: 6ba4 c184 173c 1040 9d01 d72b 9fc2 20c0
00000050: bf95 063a 1294 3140 4ce3 cf85 e665 f5bf
00000060: 0e66 15de adc6 ea3f 15e7 5cd6 dc6d 12c0
00000070: 792e 63dd 4202 19c0 bce8 5a00 e3a0 edbf
00000080: 7fe8 0a2a 7077 00c0 0fb1 a779 ec1e 1a40
00000090: dee4 45fc 1b80 f3bf c92a 410d b088 84bf
000000a0: c06d 0ee3 cc09 12c0 60ca 0701 a90f 12c0
000000b0: 6242 9241 c94f 1340 2c25 5280 ac56 0440
000000c0: 6bc4 662b 33d7 ecbf beb6 2328 7d70 1d40
000000d0: 2711 40ed f3d5 0e40 d360 30d7 19fd 0f40
000000e0: fe40 6263 7d48 2240 a866 680b 5926 ed3f
000000f0: f102 04d0 bbf0 1840 2a26 fad7 c930 10c0
00000100: b503 1cbd f97a d93f 3b25 d01a 90ac 1640
00000110: 247a 414b 598f 2ac0 7719 3afc dea8 d43f
00000120: 98f6 8456 231f 1a40 7d7e 35a1 ab5d 0a40
00000130: f7b6 7368 4161 ee3f 07fa 633b aaf6 31c0
00000140: 672a 204c 54f2 24c0 5d74 93ec 67cb 2340
00000150: 6aed e3f7 d9ca dbbf 8419 e92d 873c 0a40
00000160: 5429 58bb 316b 18c0 78b0 7a57 43ca f3bf
00000170: 71d4 5696 9ac4 e2bf 6add 50e9 a165 1640
00000180: 7447 b1f8 dc22 e53f ad15 eb34 e34c ec3f
00000190: 5bd0 f6f6 e37f 1840 2ccb ce5a b56c 0bc0
000001a0: 6fa0 8b61 2a57 2340 8f59 dca2 5c35 2840
000001b0: c087 5fdf c095 1140 ff27 3ac2 f0c0 fdbf
000001c0: 3bb8 18b8 ec16 0840 4e03 1edf 94f7 1ec0
000001d0: 62ba 74c7 d123 2040 ff34 292d 1ca4 20c0
000001e0: 3b0f 3be6 9098 fcbf fc68 f05c 12bf f73f
000001f0: d656 f241 2fa4 2340 e133 1301 7c44 2240
00000200: 2d4d 7632 5ea0 f2bf
23.6962300589783 10.5328981396606 -8.4749008226984 0.174035658468175 0.0787465849706071 -5.60864693670048 3.63148042151287 -3.77014386206723
4.05868346626185 -8.38012063026036 17.5784031168057 -1.33737804670655 0.836752828366288 -4.60728774015458 -6.25220819394928 -0.925889492696363
-2.05831940503873 6.53019895635613 -1.21877668899679 -0.010026336102006 -4.50957064414564 -4.51529313669252 4.82791616873928 2.5423212075299
-0.90126951672404 7.35985243528347 3.85446915961997 3.99858444324864 9.14158163618458 0.910931131630794 6.2350914480637 -4.04764497246064
0.398130831410579 5.6685184659521 -13.27997813391 0.322807070079214 6.53040824114364 3.29573751396657 0.949372009284814 -17.9635350340923
-10.4732993878617 9.89727725315077 -0.434256069260036 3.27955470912565 -6.10468189931483 -1.23688062831482 -0.586499494200906 5.59925045543728
0.660505758025677 0.884385684352926 6.12489305383141 -3.42808028167328 9.67024521665027 12.1042223829252 4.39624356289454 -1.85960460538854
3.01119369340361 -7.74177883740124 8.06995986270812 -8.32052746894851 -1.78724756177776 1.48414837173783 9.82067304690592 9.13375857695968
-1.16415233337177
